MNISTDigitCNN.pt (torch, 243916 bytes, 10 tensors)

conv1.weight f4 [6, 1, 3, 3]
0	0x3e42193b	0.18954937
1	0xbd9ac838	-0.0755772
2	0xbee6c1a4	-0.4506961
3	0x3dc8e56a	0.09809382
4	0xbf3014d2	-0.6878177
5	0x3e04f85f	0.12985371
6	0xbed08aa8	-0.40730786
7	0xbdb27175	-0.087130465
8	0x3f023013	0.50854605
9	0xbe5a8fe9	-0.2134396
10	0xbe07451f	-0.13209961
11	0x3eeb46ce	0.45952457
12	0x3eeb63dc	0.45974624
13	0x3ef5fa07	0.48042318
14	0x3e3806db	0.17971365
15	0x3f138293	0.57621115
16	0x3f2620f9	0.6489406
17	0xbc938f10	-0.018012553
18	0x3e86ace4	0.2630378
19	0x3ec3f6f6	0.38274354
20	0xbf26d7d9	-0.6517311
21	0x3e0c9e46	0.13732252
22	0x3f1113fa	0.56671107
23	0x3e76bab8	0.24094665
24	0xbebac4d8	-0.36478305
25	0xbe314ab3	-0.17313652
26	0x3edc3f6c	0.43017137
27	0x3dcd6846	0.10029654
28	0x3eac14b4	0.33609545
29	0xbdabf2ea	-0.083959416
30	0xbdc83b76	-0.09776966
31	0x3f5ad742	0.8548471
32	0x3f5d9be3	0.8656599
33	0x3eb17336	0.3465821
34	0x3f5273a9	0.82207733
35	0x3f2d5e36	0.6772188
36	0x3e5627d3	0.20913629
37	0xbda99a3e	-0.082813725
38	0xbf09daad	-0.538493
39	0xbe6b297a	-0.22965041
40	0xbeb60b05	-0.35555282
41	0xbe6eb758	-0.23312128
42	0xbe0d39a6	-0.13791522
43	0xbea608b3	-0.32428512
44	0xbcae906d	-0.021309102
45	0xbf24763a	-0.642429
46	0xbf6a7799	-0.9158874
47	0xbea8c2fa	-0.32961255
48	0xbeb04d5b	-0.34434018
49	0x3bb0e7d7	0.005398731
50	0x3e0ac407	0.13551341
51	0x3f51c479	0.8194042
52	0x3f6a8e1f	0.9162311
53	0x3f390567	0.7227387

conv1.bias f4 [6]
0	0x3e89a486	0.26883334
1	0xbda04d31	-0.07827223
2	0xbebbed20	-0.3670435
3	0xbdb3b85d	-0.08775399
4	0x3f480e5e	0.7814692
5	0x3d1ccd84	0.038281932

conv2.weight f4 [16, 6, 3, 3]
0	0x3da04f5c	0.078276366
1	0x3d946661	0.0724609
2	0x3d9d9266	0.07693939
3	0xbd0d9323	-0.03456415
4	0x3d440140	0.047852755
5	0x3d741334	0.059588626
6	0xbe15a35a	-0.14613095
7	0xbe1a437c	-0.15064806
8	0xbabf083c	-0.0014574598
9	0xbea183f3	-0.31545982
10	0xbd8399e0	-0.06425834
11	0xbd947754	-0.072493225
12	0x3caa5bc3	0.020795709
13	0xbcc934b7	-0.02456127
14	0xbea953f8	-0.33071876
15	0x3d8e9391	0.0696174
16	0x3d20b638	0.039236277
17	0x3e3a151f	0.1817212
18	0x3de85349	0.113440104
19	0x3c9110cb	0.017708203
20	0xbdc0ef32	-0.09420623
21	0xbe21d52d	-0.15803976
22	0x3dce0ff0	0.100616336
23	0xbe1adb87	-0.15122806
24	0x3d9bc3b4	0.07605687
25	0x3deb031d	0.11475203
26	0x3c98fb4e	0.018674519
27	0xbea3e458	-0.3201015
28	0xbea1772a	-0.31536227
29	0xbce0b7ed	-0.027431453
30	0xbcc5f2aa	-0.024163563
31	0xbd36c047	-0.044616964
32	0xbed20caa	-0.41025287
33	0x3e845ec0	0.2585354
34	0x3e89dc70	0.26925993
35	0x3c87bbe6	0.01656909
36	0xbe019f92	-0.12658527
37	0x3d529254	0.05140908
38	0xbe141d98	-0.14464414
39	0x3c4ec3bc	0.012619909
40	0x3d4602c1	0.04834247
41	0x3df68ce9	0.12038595
42	0xbe0a4059	-0.13501109
43	0xbd814f76	-0.06313984
44	0x3ce0fe07	0.02746488
45	0xbe26de31	-0.16295697
46	0xbcba50de	-0.022743639
47	0xbdf770ee	-0.120820865
48	0x3e3fdcce	0.18736574
49	0x3db2d1a4	0.08731392
50	0xbe258b73	-0.16166477
51	0x3d418927	0.04724994
52	0x3e4304d6	0.19044814
53	0x3d06e6dc	0.03293501
54	0xbdc53ba1	-0.09630514
55	0xbe3b00a1	-0.18261959
56	0xbdd9f762	-0.10642888
57	0xbd44976b	-0.047995966
58	0x3d3edc66	0.046596907
59	0xbdc6523a	-0.09683652
60	0xbcd8b3c7	-0.026452912
61	0x3dadf437	0.08493846
62	0x3da483e5	0.080329694
63	0xbe856b48	-0.26058412
64	0xbdaef810	-0.08543408
65	0x3c913393	0.017724788
66	0xbe4356ca	-0.19076076
67	0xbe636c62	-0.22209314
68	0xbeafffe4	-0.34374917
69	0xbdbe5527	-0.09293585
70	0x3e4d683c	0.20059294
71	0x3e5c880d	0.21536274
72	0xbc4151e6	-0.011799311
73	0x3e1948bc	0.14969152
74	0x3e48f3fb	0.19624321
75	0xbd0e0066	-0.03466835
76	0xbbd3829f	-0.00645478
77	0xbd489465	-0.048969645
78	0xbe25b0ae	-0.16180679
79	0xbe034dd8	-0.12822664
80	0x3cf3aa00	0.029744148
81	0xbedeb99f	-0.43500993
82	0x3c93d23a	0.01804458
83	0x3e854e47	0.26036283
84	0xbed7df66	-0.42162627
85	0xbe987e8b	-0.29784045
86	0xbf1846fd	-0.5948332
87	0x3d6619f5	0.0561771
88	0x3e55f460	0.20894003
89	0x3eb22ae9	0.34798363
90	0xbc6fdec0	-0.01464051
91	0xbcd23174	-0.025658347
92	0xbe053f3a	-0.130124
93	0x3cd827ba	0.02638613
94	0x3c346e1f	0.011012583
95	0x3e23a196	0.15979609
96	0x392bc89c	0.00016382564
97	0x3c5e05aa	0.013551155
98	0xbd4f8937	-0.050667968
99	0xbce9ccc3	-0.02854002
100	0xbd001f1e	-0.031279676
101	0xbe4f6cc0	-0.20256329
102	0xbc71acff	-0.014750718
103	0xbe284ae5	-0.1643482
104	0x3e01bee5	0.12670477
105	0x3e8ed922	0.27900034
106	0x3eaad0a9	0.3336232
107	0x3e75bbe4	0.23997456
108	0x3da6921b	0.08133336
109	0x3e12c019	0.14331092
110	0x3c69414f	0.014236762
111	0x3e944c90	0.28964663
112	0x3e009538	0.12556922
113	0xbb9c8538	-0.004776623
114	0x3da7786e	0.08177267
115	0x3e45bca0	0.19310236
116	0x3da7a6c3	0.08186104
117	0xbe970e78	-0.29503226
118	0xbd216314	-0.03940113
119	0x3dfa0744	0.12208417
120	0xbe06da50	-0.13169217
121	0x3f19ae7d	0.60031873
122	0xbdf71171	-0.120638736
123	0x3ea77d4c	0.3271278
124	0x3d7c9ee5	0.06167497
125	0xbf176f86	-0.59154546
126	0x3dc4c61b	0.09608098
127	0xbe415871	-0.18881394
128	0xbe504052	-0.20337036
129	0xbe0225eb	-0.12709777
130	0xbdec59c8	-0.11540562
131	0xbd7a6094	-0.06112726
132	0xbe6185c9	-0.22023691
133	0xbdba17ed	-0.09086595
134	0xbb0e6d52	-0.002173264
135	0xbf21c091	-0.6318446
136	0x3c14c9d6	0.009081325
137	0x3e760d32	0.24028471
138	0xbdd1134e	-0.1020876
139	0x3f295610	0.66146946
140	0xbeb6d9de	-0.35713094
141	0x3accf8cd	0.0015638113
142	0xbe20ebaa	-0.15714899
143	0xbf026547	-0.50935787
144	0xbcbe2540	-0.023211122
145	0xbe61c633	-0.22048263
146	0xbdeab046	-0.11459403
147	0xbb471575	-0.003037778
148	0xbe970c41	-0.29501536
149	0x3d0bbc8e	0.034115367
150	0xbd1e2420	-0.03860867
151	0x3d15065a	0.03638301
152	0xbbed067e	-0.00723344
153	0xbe21b250	-0.15790677
154	0x3ebdbce1	0.37058166
155	0x3de8158f	0.11332237
156	0x3e762a8a	0.24039665
157	0x3ef1ae6b	0.47203383
158	0xbe487e9e	-0.1957955
159	0x3e47aa21	0.19498493
160	0xbe70463d	-0.23464294
161	0xbe14f889	-0.14547934
162	0xbd87876c	-0.066176265
163	0xbd975bd2	-0.0739056
164	0xbe29f3be	-0.16596887
165	0xbb9e8e4e	-0.0048387414
166	0x3c573599	0.013135337
167	0xbdf9f5a2	-0.12205054
168	0x3d85b75d	0.065291144
169	0xbe35fd6c	-0.17772454
170	0xbd4253bb	-0.047443133
171	0xbd046f6c	-0.032332823
172	0xbe32adc9	-0.17449106
173	0xbe785c85	-0.24254043
174	0x3dd32d6a	0.103113964
175	0xba820b01	-0.0009921492
176	0x3cd9d85e	0.02659243
177	0x3e23751c	0.15962642
178	0x3e0cf81f	0.13766526
179	0xbd65f773	-0.05614419
180	0xbd0eadc7	-0.034833696
181	0x3d6c5a0e	0.05770307
182	0x3c36ecf9	0.011164897
183	0xbcbec24d	-0.02328601
184	0xbd972327	-0.07379752
185	0x3d9a6a66	0.07539825
186	0x3de3b500	0.111185074
187	0xbd9d3ed3	-0.076779984
188	0x3d0a77e6	0.03380575
189	0xbdaf561a	-0.085613444
190	0xbe9ef2c4	-0.3104459
191	0xbeb9ca5c	-0.362872
192	0xbe051a67	-0.12998353
193	0x3d92973b	0.07157751
194	0x3e62254f	0.22084545
195	0x3e71b72f	0.23605035
196	0x3e090a02	0.13382724
197	0x3db73fd5	0.08947722
198	0xbd35925d	-0.044329036
199	0x3bd175ee	0.006392232
200	0x3cd9dd93	0.026594913
201	0xbc7375d2	-0.0148596335
202	0xbcd5d14a	-0.026100773
203	0x3c032d12	0.008006351
204	0x3cc42092	0.023941312
205	0xbe816fa1	-0.2528048
206	0xbd8cedcc	-0.06881294
207	0x3da20159	0.07910413
208	0x3d8a9c77	0.067681246
209	0xbe6501dd	-0.22363992
210	0xbdf01956	-0.117235824
211	0x3e923a3d	0.28560057
212	0x3e9864bc	0.29764354
213	0xbb287b9d	-0.0025708445
214	0x3e4688c8	0.19388115
215	0x3d402091	0.046906058
216	0xbdf6407d	-0.12024019
217	0x3debc6ea	0.11512549
218	0x3da49e76	0.080380365
219	0x3d6d00cd	0.05786209
220	0x3dcdc86a	0.100479916
221	0xbdf13c22	-0.117790475
222	0x3d8cc491	0.068734296
223	0x3de0702c	0.10958895
224	0xbdefbc84	-0.117058784
225	0x3d9086ba	0.07056947
226	0xbd6686b1	-0.056280795
227	0xbe445d7e	-0.1917629
228	0x3e0c0c37	0.13676535
229	0xbdb6be7d	-0.089230515
230	0xbe31e84a	-0.17373767
231	0xbd943acb	-0.07237776
232	0xbe19d2e3	-0.15021853
233	0xbdfeb32f	-0.1243652
234	0x3dba023b	0.09082457
235	0xbe037bd0	-0.128402
236	0xbbbb1bfa	-0.005710122
237	0xbd496240	-0.049165964
238	0xbe057f66	-0.1303688
239	0xbe0b39d9	-0.13596286
240	0xbcb5276c	-0.022113524
241	0x3d9b87d9	0.0759427
242	0x3dba3d96	0.09093778
243	0x3d64ee0f	0.055891093
244	0x3dfefbb9	0.12450356
245	0xbe1f48cf	-0.15555118
246	0x3dea2ed2	0.114347115
247	0xbcbd026e	-0.023072448
248	0xbc322706	-0.010873562
249	0xbe034f4d	-0.1282322
250	0xbd8728da	-0.06599589
251	0xbd1a8100	-0.03772068
252	0xbdd065a7	-0.10175639
253	0xbd31821e	-0.04333698
254	0xbda80357	-0.08203762
255	0xbb9107d2	-0.004425981

conv2.bias f4 [16]
0	0xbd07a61f	-0.03311741
1	0xbbbdbf5c	-0.005790634
2	0xbe9c40fd	-0.30518332
3	0xbdfd15ec	-0.12357697
4	0xbd8b2e71	-0.06795967
5	0xbd929c08	-0.07158667
6	0xbe53da8b	-0.20688836
7	0x3d7fd70e	0.06246095
8	0xbdfaadfb	-0.122402154
9	0x3b6bcb5a	0.0035979361
10	0xbe796e48	-0.24358475
11	0xbeb0b1a9	-0.34510544
12	0x3dba94af	0.091103904
13	0xbe07acfb	-0.1324958
14	0xbdc949f6	-0.0982856
15	0x3cb3bd03	0.021940714

fc1.weight f4 [120, 400]
0	0x3d1212e2	0.03566254
1	0xbc4791af	-0.01218073
2	0x3c08c7c4	0.008348409
3	0xbd0b578b	-0.034019034
4	0xbd0ebfc0	-0.034850836
5	0xba182c28	-0.00058049196
6	0x3d068892	0.032845087
7	0x3dcdbd4a	0.1004587
8	0x3da5ccef	0.080957286
9	0xbac277d6	-0.0014836739
10	0xbba820ba	-0.0051308544
11	0xbcc6525c	-0.024209194
12	0x3d0a7dde	0.033811443
13	0xbd1a17cb	-0.037620347
14	0x3d4e0708	0.050299674
15	0x3d122bb1	0.0356862
16	0x3c221772	0.009893285
17	0x3bd6555d	0.006540938
18	0xbd4d65b3	-0.050145816
19	0xbd560794	-0.05225332
20	0xbd3239e4	-0.04351224
21	0x3d18f9ef	0.03734773
22	0xbb948cca	-0.004533385
23	0x3cae821b	0.021302273
24	0xbd2a7ef1	-0.041624967
25	0xbd1e8f2c	-0.038710758
26	0xbd9062cf	-0.07050096
27	0xbcb6f132	-0.022331808
28	0xbd1b033e	-0.03784489
29	0xbd89fdc8	-0.06737858
30	0xba94a7e9	-0.0011341545
31	0x3d092213	0.03347976
32	0xb9ee9be3	-0.00045511042
33	0x3d3e60cc	0.04647903
34	0x3c946d34	0.018118478
35	0x3d89a356	0.06720607
36	0x3d3d91cd	0.046281625
37	0x3ced355e	0.028956112
38	0xbce04935	-0.027378658
39	0x3d8f9eda	0.070127204
40	0xbdb2139b	-0.08695146
41	0xbd881ff5	-0.0664672
42	0xbd658591	-0.056035582
43	0xbcb6be41	-0.022307517
44	0x3ca64e03	0.02030087
45	0x3c8c70d6	0.017143648
46	0x3c1cf45a	0.009579742
47	0x3cc3f9ca	0.02392282
48	0xbd384294	-0.04498537
49	0x3d2cca68	0.042185217
50	0xbbcbedd0	-0.006223418
51	0xbbcb095a	-0.006196183
52	0xbd42dc92	-0.047573633
53	0xbc867cb8	-0.016416892
54	0xbd3cd441	-0.04610086
55	0x3cc57d46	0.024107587
56	0xbdca3e51	-0.09875167
57	0x3b7bcbf5	0.0038421128
58	0xbd5b43cf	-0.053531464
59	0x3c5f9c04	0.013648037
60	0x3d7021be	0.05862593
61	0x3c077e84	0.00826991
62	0x3bba9e5c	0.0056951474
63	0xbd70dd16	-0.058804594
64	0x3c3f9929	0.011694231
65	0xbd097d26	-0.033566616
66	0x3c0f44ca	0.008744428
67	0x3b02bfde	0.0019950788
68	0xbc14b9c0	-0.009077489
69	0x3d9ed80f	0.07756054
70	0xbcc71c9a	-0.02430563
71	0xbdb13464	-0.08652571
72	0x3c152789	0.009103664
73	0x3d8646b4	0.06556454
74	0x3bebdda5	0.007198053
75	0xbc4a432b	-0.012345116
76	0xbd7fd0b2	-0.062454887
77	0xbd8beba6	-0.06832056
78	0xbdb73e78	-0.08947462
79	0xbd66908f	-0.056290206
80	0xbd009327	-0.031390335
81	0x3c586585	0.013207798
82	0xbd256cbe	-0.040386908
83	0x3d3fc97a	0.046823002
84	0x3d855e03	0.06512072
85	0x3c1d5e33	0.009604978
86	0x3dcf75c7	0.10129886
87	0x3d7171cf	0.058946427
88	0x3d2cf010	0.04222113
89	0x3d8c7627	0.06858473
90	0xbd851232	-0.06497611
91	0xbd033d19	-0.03204069
92	0x3ba750ce	0.005106068
93	0x3c11285c	0.00885972
94	0xbc596364	-0.0132683255
95	0xbd2056a3	-0.039145123
96	0xbcb0f944	-0.021603234
97	0xbc24eb1d	-0.010065821
98	0xbd055e6a	-0.032560743
99	0xbd07afc6	-0.033126615
100	0xbca57ca7	-0.02020104
101	0xbd43f85a	-0.04784427
102	0x3d30bef2	0.04315085
103	0xbd4d4f71	-0.05012459
104	0xbd0d57f7	-0.034507718
105	0xbd3ea873	-0.046547364
106	0x3c8f358f	0.017481593
107	0x3b792cee	0.0038021165
108	0xbbf7f579	-0.0075671044
109	0x3d382012	0.04495246
110	0xbd0205fb	-0.031743985
111	0xba8224a0	-0.0009929128
112	0xba3e6369	-0.0007262738
113	0x3cd70ddb	0.026251724
114	0xbd3aa3ec	-0.045566484
115	0xbd2f3b91	-0.042781416
116	0x3c9af6ad	0.018916452
117	0xbca462f3	-0.020066714
118	0x3c8fc14a	0.017548222
119	0xbcf8de88	-0.030379549
120	0x3d3c3b0b	0.045954745
121	0xbcbe9540	-0.023264527
122	0xbba5d54e	-0.0050608283
123	0x3d11bf82	0.035583027
124	0x39a89baf	0.0003215945
125	0x3bc841ff	0.006111383
126	0xbd37721c	-0.044786558
127	0xbd3d640f	-0.046238
128	0x3d029ec6	0.0318897
129	0xba12b1d0	-0.0005595954
130	0x3cacd290	0.021096498
131	0x3d495b36	0.04915925
132	0xbd0a3453	-0.033741307
133	0x3d110be8	0.035411745
134	0x3ca5f907	0.020260347
135	0xbd27c9f3	-0.04096408
136	0x3cd5f583	0.026118046
137	0xbca41715	-0.020030538
138	0xbd4127d0	-0.04715711
139	0xbca40133	-0.020020103
140	0xbc2a046f	-0.010377034
141	0xbd26350b	-0.04057793
142	0x3cf7d593	0.030253207
143	0xbbaf710d	-0.005354053
144	0xbbf84780	-0.007576883
145	0xbcd53a42	-0.026028756
146	0x3d4a566f	0.049398836
147	0x3cf91593	0.030405795
148	0xbd000ec7	-0.031264093
149	0x3d49e342	0.049288996
150	0xbd4ee680	-0.05051279
151	0xbbcf3796	-0.006323765
152	0x3d190d5c	0.037366256
153	0x3d6963c1	0.0569799
154	0x3bf11fd4	0.0073585305
155	0x3c43fed8	0.011962615
156	0x3cbe3928	0.023220614
157	0xbd0034e3	-0.031300437
158	0xbcb061d9	-0.021531032
159	0xbd217125	-0.039414544
160	0xbd844ec0	-0.06460333
161	0xbca20579	-0.019778
162	0x3e24341f	0.16035508
163	0x3c48972a	0.012243072
164	0x3c249302	0.010044815
165	0x3d99d1eb	0.07510742
166	0xbc188ad9	-0.009310448
167	0x3d4c19f7	0.04982945
168	0x3dca7bb6	0.09886877
169	0x3d7b645d	0.06137501
170	0x3c3daa92	0.011576312
171	0x3d24229b	0.040072065
172	0xbdb05eca	-0.086118296
173	0xbd2547ca	-0.040351667
174	0xbda84d12	-0.08217825
175	0x3b4464b0	0.002996724
176	0xbd183f4a	-0.037169732
177	0xbd1861dd	-0.037202705
178	0xbd672d4f	-0.056439694
179	0x3d3580ea	0.044312395
180	0xbc9485d6	-0.018130224
181	0xbd250f51	-0.04029781
182	0xbca1d024	-0.01975257
183	0x3c20ddca	0.009818504
184	0x3cd4db24	0.0259834
185	0x3ce043ef	0.027376143
186	0x3d86b598	0.06577605
187	0xba7c78b1	-0.00096310215
188	0xbd3dc8e3	-0.04633416
189	0xbd1d0b82	-0.038341053
190	0xbc61f0ef	-0.013790353
191	0x3d412bd1	0.047160927
192	0xbb8bb962	-0.0042640427
193	0xbbff2048	-0.0077858306
194	0xbd3c292c	-0.045937702
195	0xbbb28570	-0.005448036
196	0x3b9c294e	0.004765666
197	0x3ca22148	0.01979126
198	0x3c97c413	0.018526113
199	0xbbd9e088	-0.0066490807
200	0xbc3dc58a	-0.0115827415
201	0xbc6f453c	-0.014603909
202	0xbd2ac44b	-0.041691106
203	0xbd30abb0	-0.043132484
204	0x39e673ac	0.000439552
205	0x3dbbad8d	0.091639616
206	0xbc808d9a	-0.01569252
207	0xbd3d7cf8	-0.046261758
208	0xbd9a25f4	-0.0752677
209	0xbd904db4	-0.07046071
210	0x3d029f08	0.031889945
211	0x3d22fcf4	0.039792016
212	0x3e47b7c6	0.19503698
213	0x3e21a041	0.15783788
214	0x3dc2905b	0.0950019
215	0xbc49ad4b	-0.012309383
216	0x3c68088b	0.014162193
217	0xbde5edab	-0.11226972
218	0x3b2cc63e	0.0026363279
219	0x3da63f59	0.08117551
220	0xbd441ed8	-0.047880977
221	0xbd52058b	-0.051274817
222	0xbd7b34cc	-0.061329648
223	0xbd360a75	-0.044443566
224	0xbdb86d54	-0.09005228
225	0x3d6534be	0.055958502
226	0xb8e674e1	-0.00010989025
227	0x3d073ba1	0.03301585
228	0x39c023a6	0.00036647654
229	0xbd94a3ad	-0.07257781
230	0x3d6671ef	0.056261
231	0x3c916b26	0.017751288
232	0x3c1165a6	0.0088743325
233	0xbc99d2a0	-0.018777192
234	0xbdbe57d7	-0.09294098
235	0x3d401e95	0.046904165
236	0x3d52564c	0.05135183
237	0x3d91be16	0.07116334
238	0xbc7acc77	-0.015307537
239	0xbd3aeeef	-0.04563802
240	0xbc808191	-0.015686782
241	0xbbf373b2	-0.0074295634
242	0x3d6ec693	0.058294844
243	0x3c85ab41	0.016317012
244	0x3e20a0e4	0.15686375
245	0xbd88271a	-0.06648083
246	0x3ce051ba	0.02738272
247	0xbc14b783	-0.009076956
248	0x3c8bc80a	0.01706316
249	0x3d199893	0.03749902
250	0x3d020c64	0.031750098
251	0xbd197cee	-0.037472658
252	0xbc7b6dd1	-0.0153460065
253	0xbd58b800	-0.05290985
254	0xbd2c0c8f	-0.042004164
255	0x3d1f115d	0.03883492

fc1.bias f4 [120]
0	0x3cd64d97	0.026160045
1	0xbc721923	-0.014776501
2	0x3d0b4f31	0.03401107
3	0x3c8cea16	0.017201465
4	0x3bd6c7b0	0.0065545663
5	0x3cf331c9	0.029686825
6	0x3c8bb5a1	0.01705438
7	0xbc33b0f8	-0.010967486
8	0xbc6321f3	-0.013863075
9	0xbcaef0cb	-0.021355053
10	0x3bc2112a	0.0059224563
11	0xbd255c37	-0.040371146
12	0x3c221783	0.009893301
13	0xbd49e147	-0.049287107
14	0x3d3907b3	0.04517336
15	0x3d6f5b6a	0.05843679
16	0xbcf3bd9f	-0.029753504
17	0x3cad055c	0.02112072
18	0x3cc7a296	0.02436952
19	0x3ccc3c9d	0.024931246
20	0xbd3b07bf	-0.045661684
21	0xbd215a63	-0.03939284
22	0x3d5ba200	0.053621292
23	0x3cbe11f5	0.023201922
24	0xbd43f859	-0.047844265
25	0x3d02ba07	0.03191569
26	0xbcc39a3f	-0.023877261
27	0x3ce3197d	0.027722115
28	0x3c990f36	0.018684011
29	0xba88e70f	-0.0010444837
30	0xbca1ee12	-0.019766841
31	0xbd53a1af	-0.051667865
32	0x3d24d5ad	0.04024284
33	0x38d729b7	0.00010259769
34	0xbc3a9b2e	-0.011389537
35	0x3d8a5c4e	0.06755887
36	0x3c871084	0.016487367
37	0x3c086f05	0.00832725
38	0x3db99469	0.0906151
39	0xbce725ea	-0.028216321
40	0xbcc9024e	-0.024537232
41	0xbccffe62	-0.025389854
42	0xb9d7b550	-0.00041143084
43	0xbc46fca7	-0.012145198
44	0xbcc6dc5d	-0.024275
45	0x3cbcc388	0.023042455
46	0x3cbad95c	0.022808723
47	0xbb9a15d6	-0.00470231
48	0x3cc9c74d	0.024631167
49	0xbb02cf33	-0.0019959926
50	0xbd05db34	-0.03267975
51	0xbd547c8c	-0.05187659
52	0x3cf7be1e	0.030242022
53	0xbccb4e39	-0.024817573
54	0x3d302007	0.042999294
55	0xbd14705e	-0.036239974
56	0xbd684528	-0.056706578
57	0x3cd8d045	0.026466498
58	0x3dc9e012	0.09857191
59	0xbcaaa17f	-0.02082896
60	0x3c829f3c	0.01594507
61	0xbd569be0	-0.052394748
62	0x3d9d36fd	0.07676504
63	0xbd123ead	-0.035704304
64	0xbd496545	-0.049168844
65	0xbc9c95de	-0.019114431
66	0x3d570768	0.052497298
67	0x3d6a99b4	0.05727549
68	0xbc2ecc06	-0.01066876
69	0x3c874e21	0.016516747
70	0x3ca4c479	0.020113217
71	0xbd3f2466	-0.04666557
72	0xbd48c5c5	-0.049016733
73	0x3d076143	0.03305174
74	0x3c6192a5	0.013767873
75	0xbd236f73	-0.039901208
76	0xbcd02a4b	-0.025410792
77	0x3d874b16	0.066061184
78	0x3d33aeff	0.04386806
79	0x3cb19247	0.021676196
80	0x3b3bc945	0.0028653902
81	0x3d0b8c7b	0.03406952
82	0xbb368d5f	-0.002785526
83	0x3d696bcb	0.056987565
84	0xbc72a8c0	-0.014810741
85	0x3ce5daaf	0.028058378
86	0xbd3b3149	-0.0457013
87	0xbd5e047a	-0.054203488
88	0x3d11f310	0.035632193
89	0x3b9fece6	0.0048805354
90	0xbd01b65c	-0.031668052
91	0xbd0d9472	-0.034565397
92	0x3cac9d56	0.021071117
93	0x3c3d9db8	0.011573248
94	0xbbbd1a68	-0.00577097
95	0x3d2c8d00	0.042126656
96	0xbcab16d9	-0.020884918
97	0x3ce44e9f	0.02786952
98	0x3c87e37e	0.016587969
99	0xbc0fca79	-0.008776301
100	0x3d250ecd	0.04029732
101	0xbc1c6114	-0.00954463
102	0xbca75dcd	-0.02043047
103	0xbac413f9	-0.0014959566
104	0x3c83ddf5	0.016097048
105	0x3cfb3345	0.030664096
106	0x3c3df1bf	0.011593281
107	0xbcf19dd4	-0.029494204
108	0xbd022828	-0.031776577
109	0x3dae806a	0.08520587
110	0xbd37a673	-0.044836473
111	0x3ccb27f8	0.024799332
112	0x3d021d86	0.031766437
113	0x3d4446ff	0.04791927
114	0x3c6e4c9b	0.014544631
115	0xbce691b1	-0.028145643
116	0x3cfbfeb4	0.0307611
117	0xbcd46c43	-0.02593053
118	0xbd05cd25	-0.032666344
119	0x3a2898e7	0.00064314756

fc2.weight f4 [84, 120]
0	0x3c9fb7cc	0.01949682
1	0x3d5c578f	0.05379444
2	0x3d37641e	0.044773214
3	0xbda70d2a	-0.08156808
4	0xba99bfb1	-0.0011730102
5	0xbb2ead47	-0.0026653574
6	0xbd6e9f62	-0.058257468
7	0xbd57884e	-0.052620225
8	0xbbfbfcfd	-0.0076900707
9	0xbe41df13	-0.18932752
10	0xbb0191ff	-0.0019770858
11	0xbcb02f48	-0.02150692
12	0x3cae352b	0.021265587
13	0x3e04b8c7	0.12961112
14	0x3e0d4b49	0.1379825
15	0x3d727e96	0.059202753
16	0xbcbf965f	-0.023387132
17	0xbdb22afa	-0.086996034
18	0x3cb3cda8	0.02194865
19	0x3be7b225	0.007070797
20	0x3c59e256	0.013298592
21	0xbd7eedb6	-0.062238418
22	0xbddeb8e5	-0.108751096
23	0xbe07b701	-0.13253404
24	0xbd883c3a	-0.06652112
25	0xbdca5710	-0.09879887
26	0xbd87a824	-0.06623867
27	0xbdcc92fc	-0.099889725
28	0x3c4e362b	0.012586157
29	0xbdf2d938	-0.118578374
30	0xbb9cd62f	-0.004786275
31	0x3dc2a18b	0.09503468
32	0xbe1e511d	-0.1546063
33	0xbe2e9cc0	-0.17051983
34	0xbd44030d	-0.047854472
35	0x3c6ec8b3	0.014574218
36	0xbda0efe3	-0.07858255
37	0xbcf259e4	-0.029583879
38	0x3da7fda1	0.08202673
39	0xbd9cbad1	-0.0765282
40	0xbb537559	-0.003226599
41	0xbcd498f4	-0.02595184
42	0x3cb838e9	0.022488074
43	0xbdd04d97	-0.10171049
44	0xbe5575e5	-0.20845754
45	0x3e100f0a	0.14068237
46	0x3e59f850	0.2128613
47	0xbd07788e	-0.033073954
48	0xbe0699a0	-0.13144541
49	0x3dc859dc	0.09782764
50	0xbda66a08	-0.081256926
51	0xbc7a4271	-0.01527463
52	0x3c8cde72	0.017195914
53	0x3cc4092b	0.023930153
54	0x3c18e897	0.0093327975
55	0x3c7ba029	0.015358009
56	0x3de94208	0.113895476
57	0x3d32c45b	0.04364429
58	0xbdf6561f	-0.12028145
59	0x3d1a104d	0.037613202
60	0xbd955dfb	-0.07293316
61	0x3c929a7c	0.01789593
62	0xbd31d760	-0.04341829
63	0x3da28893	0.07936206
64	0x3d8e7da2	0.06957556
65	0x3d949b2f	0.072561614
66	0x3e331763	0.1748939
67	0x3d0354c8	0.032063276
68	0x3d5d0f87	0.053969886
69	0xbd8ccf41	-0.06875468
70	0xbe167022	-0.14691213
71	0xbd3a8c10	-0.04554373
72	0xbd4edd46	-0.05050399
73	0xbd9c3e15	-0.07629029
74	0xbd8a2ed9	-0.06747217
75	0xbdecbc14	-0.115593106
76	0x3e319636	0.17342457
77	0x3d20896d	0.03919356
78	0xbcf24e53	-0.029578364
79	0x3bb47f95	0.005508373
80	0xbe012c20	-0.12614489
81	0x3c409350	0.011753872
82	0xbc5d5084	-0.013507966
83	0xbd7fe234	-0.062471583
84	0x3dd1eb43	0.10249951
85	0x3d29062b	0.041265648
86	0x3c9fdfc9	0.019515889
87	0x3d4ca9a9	0.049966488
88	0x3d7c9b5f	0.06167161
89	0xbcc9e6a3	-0.024646109
90	0x3d5fca0a	0.05463604
91	0x3d3ced4a	0.046124734
92	0x3dfe2185	0.12408737
93	0xbd821f1f	-0.06353592
94	0x3dceb5c2	0.10093261
95	0xbd968ed3	-0.0735146
96	0x3d6581be	0.056031935
97	0xbe510707	-0.20412837
98	0x3affd0da	0.0019517199
99	0x3da0b205	0.078464545
100	0xbda2a8df	-0.07942366
101	0xbd67dd61	-0.056607608
102	0xbdfba600	-0.12287521
103	0x3e166384	0.146864
104	0x3c8653d3	0.016397392
105	0xbd1e512f	-0.03865164
106	0xbc16b936	-0.009199431
107	0xbce2dbac	-0.027692638
108	0x3c1f7f3c	0.009734925
109	0xbd442441	-0.047886137
110	0x3b854523	0.0040670796
111	0x3dc38676	0.09547131
112	0xbc5ba55d	-0.013406125
113	0x3e1dc14b	0.15405767
114	0x3d803e92	0.06261934
115	0x3d505078	0.05085799
116	0xbd63d4d7	-0.0556229
117	0x3c4e00e4	0.0125734545
118	0x3e586f95	0.21136315
119	0x3de76b72	0.112997904
120	0x3ce74a69	0.028233724
121	0xbae7ffc1	-0.0017700122
122	0x3e291509	0.1651193
123	0xbd4a95fb	-0.04945944
124	0x3d87abd3	0.0662457
125	0x3d070149	0.03296021
126	0x3d9e8a13	0.07741179
127	0xbd96b7d8	-0.07359284
128	0x3d94cf1f	0.07266068
129	0x3e3485c2	0.1762915
130	0x3d9f3477	0.07773679
131	0xbb82aeb5	-0.003988112
132	0x3d2749e9	0.04084197
133	0x3cd94327	0.026521279
134	0xbd906ee0	-0.07052398
135	0xbd098310	-0.033572257
136	0xbde08dac	-0.10964522
137	0xbd3b8f5a	-0.045791008
138	0x3d3d8352	0.046267815
139	0x3d65c7ae	0.056098633
140	0x3c189104	0.009311918
141	0x3949ee56	0.00019257641
142	0x3d82c7cf	0.06385767
143	0x3d95f6f5	0.07322494
144	0x3d86e641	0.06586886
145	0xbb97c87c	-0.004632054
146	0x3dbf15c4	0.09330323
147	0x3d8857b7	0.06657355
148	0x3d9ec34e	0.07752095
149	0x3caafeab	0.020873388
150	0x3df733ce	0.12070428
151	0xbd926e8f	-0.07149994
152	0x3ddef80f	0.10887157
153	0x3c512025	0.0127640115
154	0xbd308924	-0.043099537
155	0xbd33c6ea	-0.04389087
156	0x3cd2fb6e	0.025754657
157	0x3c6a1387	0.014286882
158	0xbcb8a48e	-0.022539403
159	0xbbd9d213	-0.0066473573
160	0x3d47464b	0.04865102
161	0xbccbf50c	-0.02489712
162	0xbd36c9f0	-0.044626176
163	0x3bca988c	0.006182736
164	0xbdeea3e8	-0.116523564
165	0x3d0c5590	0.034261286
166	0xbdc330a7	-0.09530764
167	0xbd5bf3ed	-0.053699423
168	0x3e1ec730	0.15505672
169	0x3dba4dda	0.0909688
170	0xbdf8e6c1	-0.12153388
171	0xbd80f28d	-0.06296263
172	0x3d2f5bc7	0.042812135
173	0xbc918a72	-0.017766211
174	0x3cd09088	0.025459543
175	0xbd43b6a2	-0.047781594
176	0x3d868165	0.06567649
177	0x3c446190	0.011986151
178	0xbd380012	-0.044921942
179	0x3ca9e738	0.020740137
180	0xbd9471fe	-0.07248305
181	0xbd570045	-0.05249049
182	0x3d243b6f	0.040095743
183	0xbdad63a1	-0.08466268
184	0x3c4b25e6	0.012399172
185	0x3d9cb135	0.07650987
186	0x3c350829	0.011049309
187	0x3cdf52ad	0.027261103
188	0xbbe4cd35	-0.0069824704
189	0x3dbe6c37	0.09297984
190	0x3b6693b6	0.0035183257
191	0xbd92cad2	-0.07167591
192	0x3db7177c	0.08940026
193	0xbc5c2258	-0.013435923
194	0xbca44183	-0.02005077
195	0x3dd0718f	0.101779096
196	0xbde6f53c	-0.112772435
197	0x3d0c69c1	0.034280542
198	0xbd1bbad8	-0.038019985
199	0x3d0ac234	0.033876613
200	0x3b9f7cd9	0.004867178
201	0x3daf1b70	0.08550155
202	0x3e0b8f25	0.13628824
203	0xbde4fabc	-0.11180636
204	0xbcb84ef9	-0.022498595
205	0xbd47e833	-0.048805427
206	0xbd8f741d	-0.07004569
207	0x3d2ef608	0.042715102
208	0x3d73161a	0.05934725
209	0x3ce2dfb1	0.027694555
210	0x3c7c2809	0.0153904045
211	0xbcaa8c84	-0.020818956
212	0x3d244fa6	0.04011502
213	0xbdcfe501	-0.10151101
214	0xbc9b804e	-0.018982079
215	0xbd995e7e	-0.07488726
216	0x3cba9134	0.022774316
217	0x3d6a30f6	0.0571756
218	0x3c407024	0.011745486
219	0x3cf566d2	0.029956255
220	0xbd63a275	-0.055574853
221	0x3b77ee96	0.0037831417
222	0xbc99859b	-0.018740466
223	0x3dfbf774	0.12303057
224	0x3dd95269	0.106114216
225	0xbc5fb5dc	-0.0136541985
226	0xbd2b7e88	-0.041868716
227	0xbca0d2d2	-0.019631777
228	0x3d6a5e3e	0.057218783
229	0x3c8ffe86	0.01757742
230	0xbcef9f21	-0.029250683
231	0x3e29a070	0.16565108
232	0xbd3d78db	-0.046257835
233	0xbd919f07	-0.0711041
234	0xbbef79a0	-0.0073082
235	0x3b197ccb	0.002342033
236	0x3d645839	0.0557482
237	0xbd49ee90	-0.049299777
238	0xbc22a61b	-0.009927298
239	0xbd65a21b	-0.0560628
240	0x3dde5cf2	0.10857572
241	0xbda60aaa	-0.08107503
242	0x3c216520	0.00985077
243	0x3dc5feba	0.09667726
244	0x3c54f744	0.012998406
245	0xbd8c8b59	-0.06862516
246	0xbdb060c7	-0.08612209
247	0x3cc0f76a	0.023555476
248	0xbc046723	-0.00808123
249	0xbcbbaba3	-0.022908991
250	0x3c98bad7	0.01864378
251	0xbd7ca2bc	-0.061678633
252	0x3cb82aed	0.022481406
253	0xbd5ea062	-0.05435217
254	0x3d89b9e6	0.067249104
255	0x3d0834d5	0.03325351

fc2.bias f4 [84]
0	0x3d2074d5	0.03917392
1	0xbc969779	-0.018382775
2	0xbd3381fb	-0.04382513
3	0xbbb81732	-0.0056179995
4	0xbd4ddb23	-0.050257813
5	0x3d61bb20	0.055110097
6	0xbd550d5f	-0.052014705
7	0x3d43c78a	0.047797717
8	0x3c880150	0.016602188
9	0x3cebe8d6	0.028797548
10	0xbd0b483d	-0.03400444
11	0x3db72271	0.08942116
12	0x3d3a9d94	0.045560434
13	0x3d8ab4dc	0.067727774
14	0xbd9487a0	-0.07252431
15	0xbcd1aab7	-0.025594098
16	0x3d2207c0	0.039558172
17	0x3d5b3f66	0.05352726
18	0x3d41b895	0.04729517
19	0xbc69d659	-0.014272296
20	0xbd98191c	-0.07426664
21	0xbcd814fc	-0.026377194
22	0x3dae4257	0.08508747
23	0x3d5e63df	0.054294463
24	0xbc0f8bfa	-0.0087614
25	0xbd10d8a9	-0.035362873
26	0x3bc85a3d	0.006114273
27	0x3d0c5ba3	0.03426708
28	0xbd89a27d	-0.06720445
29	0x3c44d753	0.012014228
30	0xbda5c4a6	-0.08094148
31	0xbd6af59d	-0.05736314
32	0x3cdbe835	0.026844123
33	0xbd46357c	-0.04839085
34	0xbbfb4ddf	-0.007669195
35	0xbd91506a	-0.07095416
36	0x3d7793e1	0.060443763
37	0x3dd3f51c	0.10349485
38	0xbc43a662	-0.011941524
39	0x3cccfe96	0.02502374
40	0x3c7854a2	0.015156897
41	0xbd845c52	-0.06462921
42	0x3e0116b6	0.1260632
43	0x3e0f3da9	0.13988365
44	0xbd63238f	-0.055453833
45	0x3cabeadc	0.020986013
46	0x3cecffb8	0.02893053
47	0x3d9482ee	0.07251535
48	0x3d9547d5	0.072890915
49	0x3d969595	0.07352749
50	0xbd37d103	-0.044877063
51	0xbd5034a3	-0.05083145
52	0x3dc2a16d	0.09503446
53	0xbc8cf515	-0.017206708
54	0x3d7d04af	0.061772045
55	0x3d8c7005	0.068573035
56	0xb9a89fe2	-0.0003216258
57	0x3cfa897b	0.030583134
58	0x3d2c1f25	0.04202189
59	0x3d8103f9	0.06299586
60	0xbcbfe934	-0.02342663
61	0xbd6e07ad	-0.05811279
62	0xb90ab259	-0.00013227145
63	0xbd64e576	-0.055882894
64	0x3dfedd6e	0.12444578
65	0xbaf075ce	-0.0018345655
66	0x3ce98bee	0.028509106
67	0x3dcd661e	0.10029243
68	0xbc6d4eca	-0.014484117
69	0xbd4ced30	-0.050030887
70	0x3d1ca1f6	0.038240395
71	0x3d346405	0.0440407
72	0x3e0230e9	0.1271397
73	0xbd49c362	-0.049258597
74	0x3c0d16cf	0.008611395
75	0x3dd4ee54	0.1039702
76	0x3d6044cc	0.05475311
77	0xbbf75a5d	-0.007548614
78	0x3dc1b894	0.094590336
79	0xbdbaf533	-0.09128799
80	0x3d454e18	0.04817018
81	0xbd34f9bc	-0.044183478
82	0xbd7d7fac	-0.061889336
83	0xbd999853	-0.07499757

fc3.weight f4 [10, 84]
0	0xbe7ef593	-0.24898367
1	0x3e3d5fc3	0.18493561
2	0x3dcf6c0a	0.10128029
3	0x3ec155f1	0.3776088
4	0xbdd02e7e	-0.10165118
5	0xbebbab63	-0.36654195
6	0x3ef4fc2b	0.4784864
7	0x3e5e14c8	0.21687615
8	0x3d36d08f	0.04463249
9	0xbcf5713e	-0.029961225
10	0x3e221a49	0.1583034
11	0xbd8dd25d	-0.06924889
12	0x3dccdb74	0.10002795
13	0x3ec5f4af	0.3866324
14	0xbdfb0c7b	-0.1225824
15	0x3db4c2eb	0.0882624
16	0xbe620ce7	-0.22075234
17	0x3e193189	0.14960302
18	0x3d03f587	0.032216575
19	0xbdab4939	-0.083635755
20	0xbdec51a6	-0.11539011
21	0x3d2e76b5	0.042593677
22	0x3dc367f1	0.095413096
23	0xbecbc7ce	-0.39800876
24	0x3e1205e8	0.14260066
25	0xbddab820	-0.1067965
26	0x3d085305	0.0332823
27	0x3dc3bc87	0.09557443
28	0xbd0ab919	-0.03386793
29	0x3c13ae88	0.009013779
30	0x3cac7b12	0.021054778
31	0x3d484ce7	0.048901465
32	0xbd8c3eba	-0.06847902
33	0xbdcffd20	-0.10155702
34	0xbce7f13c	-0.028313272
35	0x3cec2078	0.028824076
36	0xbe635023	-0.22198538
37	0xbe823d97	-0.25437614
38	0xbdba2ead	-0.09090934
39	0xbea7a988	-0.3274653
40	0xbdfe5ef6	-0.12420456
41	0xbd57a2aa	-0.052645363
42	0x3e1eadee	0.15496036
43	0xbe13e755	-0.14443715
44	0x3da701b1	0.081546195
45	0xbd004ddc	-0.031324252
46	0x3a38f2b6	0.000705521
47	0xbe3c3c57	-0.18382393
48	0xbd0e499e	-0.034738176
49	0xbdf08fc9	-0.11746175
50	0xbda3ff0e	-0.08007632
51	0x3eb29609	0.34880093
52	0xbe005d6a	-0.12535635
53	0xbe5c4ed5	-0.21514447
54	0x3e222caa	0.1583735
55	0x3ddb89e8	0.10719663
56	0x3bc3db5e	0.0059770783
57	0xbe4d29b1	-0.20035435
58	0x3cc2ec94	0.02379445
59	0xbe521376	-0.20515236
60	0x3dd1cb2d	0.10243831
61	0x3d443a7d	0.04790734
62	0xbd1db3a8	-0.03850141
63	0x3beda52e	0.007252357
64	0xbed39be7	-0.41329882
65	0x3cc928e5	0.024555633
66	0x3e1d05f5	0.15334304
67	0x3d657daf	0.056028064
68	0x3e3224f0	0.17396903
69	0x3daa5b48	0.08318192
70	0xbe73bbc5	-0.23802097
71	0xbdfa0778	-0.12208456
72	0x3d8b23ba	0.06793924
73	0xbdcfdb66	-0.10149269
74	0xbdc0b319	-0.0940916
75	0xbdac08c5	-0.0840011
76	0x3e4cba58	0.1999296
77	0x3df2c54a	0.11854036
78	0x3d1d5a07	0.038415935
79	0x3eac181d	0.33612147
80	0x3d92eaf2	0.071737185
81	0xbda6eb91	-0.081503995
82	0xbd271a60	-0.040796638
83	0xbd6a083c	-0.05713676
84	0xbd357c3e	-0.04430794
85	0x3ce72af5	0.028218726
86	0xbe149f26	-0.14513835
87	0xbdc1ed83	-0.0946913
88	0xbda0feac	-0.07861075
89	0x3e542c61	0.20720054
90	0xbe8c3e69	-0.27391365
91	0xbe3945ab	-0.18092982
92	0xbdf4e7de	-0.11958288
93	0x3da314fb	0.07962986
94	0x3dcab6f7	0.09898179
95	0x3ed10d6f	0.40830562
96	0xbd84372a	-0.06455834
97	0xbe497a07	-0.19675456
98	0xbdd9c6c7	-0.10633617
99	0xbe2c75db	-0.16841833
100	0xbddc8dc4	-0.10769227
101	0xbde00eda	-0.10940333
102	0xbcd8ca82	-0.02646375
103	0x3e65bb76	0.22434792
104	0xbe76a319	-0.24085654
105	0x3c4b973c	0.012426194
106	0x3f02c285	0.51078063
107	0x3e005982	0.12534145
108	0xbeb06c3a	-0.3445757
109	0xbda0af57	-0.078459434
110	0xbd8fe411	-0.07025922
111	0x3e7d6c05	0.24748237
112	0x3d81c871	0.06337059
113	0xbddaa2d6	-0.1067559
114	0xbd7e95f9	-0.062154744
115	0x3d9d2902	0.07673837
116	0xbd9f2a4b	-0.077717386
117	0xbad49e28	-0.0016221451
118	0xbb836284	-0.0040095467
119	0xbe61f2e0	-0.22065306
120	0xbe24ba3f	-0.16086672
121	0x3e8a2647	0.26982328
122	0x3d90b31f	0.07065415
123	0x3dd3b0de	0.10336469
124	0x3deb6f9a	0.11495896
125	0x3d3f1b65	0.046656985
126	0x3d87bac1	0.06627417
127	0x3d6b23d5	0.05740722
128	0x3dc61414	0.09671798
129	0xbda806f0	-0.08204448
130	0x3c4db03d	0.0125542255
131	0x3db184ba	0.08667894
132	0x3e0e1839	0.13876428
133	0xbc0e521d	-0.0086865695
134	0xbe8fdce6	-0.2809822
135	0xbd0d1ac8	-0.03444937
136	0x3e8a2a95	0.26985613
137	0x3e8a745e	0.27041906
138	0xbd59e99b	-0.0532013
139	0xbdfbc58c	-0.122935385
140	0xbeaf4272	-0.3423038
141	0xbdff1d1b	-0.12456723
142	0x3c1ad28f	0.009449615
143	0xbe692b4f	-0.22770427
144	0xbddae06e	-0.10687338
145	0xbd9d2baa	-0.07674344
146	0xbe4963ec	-0.19667023
147	0x3e39aec0	0.18133068
148	0x3e5ab06f	0.21356367
149	0xbc9aa72c	-0.018878542
150	0xbe02e8fa	-0.12784186
151	0x3e294fe1	0.16534378
152	0xbced6286	-0.028977644
153	0xbe611d2e	-0.21983787
154	0xbdd02e0a	-0.10165031
155	0x3e898f50	0.2686715
156	0x3eacc86e	0.33746666
157	0xbe1388ce	-0.14407656
158	0xbe67cd4b	-0.22636907
159	0xbe088db9	-0.13335313
160	0xbc59ca0d	-0.013292802
161	0x3defe208	0.11713034
162	0xbc976ae0	-0.01848358
163	0xbe8af2fc	-0.27138507
164	0xbec87f61	-0.39159682
165	0xbd5c98bf	-0.053856608
166	0x3ded28d9	0.11580057
167	0x3e5ab49c	0.2135796
168	0xbdb957f1	-0.090499766
169	0x3e3c9693	0.18416815
170	0xbdff7ae3	-0.12474611
171	0x3e60343e	0.21894929
172	0xbd0a0ded	-0.033704687
173	0x3dea0db5	0.11428396
174	0x3e97f6a2	0.29680353
175	0x3e895b96	0.26827687
176	0x3d5abc38	0.053402156
177	0x3c65f545	0.014035528
178	0xbd7edbc7	-0.062221315
179	0xbdd3912c	-0.10330424
180	0x3cdff578	0.027338728
181	0xbe614d35	-0.22002108
182	0x3ca1c5d2	0.019747648
183	0x3dacf5bf	0.0844531
184	0xbe0ddc07	-0.13853465
185	0x3da15f8f	0.078795545
186	0x3d878378	0.066168725
187	0xbcc48e05	-0.023993501
188	0xbca681e2	-0.020325605
189	0x3e3a1502	0.18172076
190	0x3d1ae153	0.037812542
191	0xbd1017fa	-0.035179116
192	0xbe9079d6	-0.28217953
193	0x3e0d6df4	0.13811475
194	0xbdb040e9	-0.08606131
195	0x3d643c57	0.055721607
196	0xbe6662c0	-0.22498608
197	0xbea0fdff	-0.31443784
198	0x3e0af7f2	0.13571146
199	0xbdcc6598	-0.09980315
200	0xbd23cfcf	-0.039993104
201	0x3dc15503	0.09440043
202	0x3dfc834c	0.123297304
203	0x3cad2cee	0.021139588
204	0xbe40d555	-0.1883138
205	0x3e1f8629	0.15578522
206	0x3d28c695	0.041205008
207	0x3e3ab18b	0.1823179
208	0xbc92b14e	-0.017906811
209	0xbd42a278	-0.047518224
210	0xbed751de	-0.42054647
211	0xbe96447d	-0.29349127
212	0xbd84f4a9	-0.06491978
213	0xbdb28891	-0.08717454
214	0xbddf4802	-0.10902406
215	0x3e5963ce	0.21229479
216	0xbcbfd51c	-0.023417048
217	0xbd08e994	-0.033425882
218	0x3e6dad46	0.2321063
219	0xbe88a8f5	-0.26691404
220	0x3e68b8f7	0.22726808
221	0x3e9dd56b	0.30826887
222	0x3e20b186	0.1569272
223	0xbe383cb3	-0.17991905
224	0x3e617b49	0.22019686
225	0xbeed9986	-0.46406192
226	0xbcde3602	-0.027125362
227	0x3e2bcb46	0.16776761
228	0xbdb06c7f	-0.08614444
229	0xbd9b0710	-0.075697064
230	0x3e878f19	0.26476362
231	0x3d238c26	0.039928578
232	0xbdc05f0d	-0.093931295
233	0xbcacb292	-0.021081243
234	0xbe5d19ae	-0.21591827
235	0xbea5782a	-0.3231824
236	0xbd842a46	-0.064533755
237	0x3d906e01	0.070522316
238	0xbe501c36	-0.20323262
239	0xbda2ec21	-0.07955194
240	0xbe0e9749	-0.13924898
241	0x3df0bf51	0.11755241
242	0x3d735495	0.059406836
243	0x3de72016	0.11285417
244	0x3e87647f	0.2644386
245	0x3ebd0ec0	0.36925316
246	0xbe89ad9f	-0.26890275
247	0xbe2f0a85	-0.17093857
248	0x3d623977	0.055230584
249	0x3d222fde	0.03959643
250	0x3e192ea9	0.14959206
251	0xbe0a8b91	-0.13529803
252	0xbd598ff2	-0.053115793
253	0xbd92589b	-0.071458064
254	0x3ccf653e	0.02531683
255	0xbe6c4d5f	-0.2307639

fc3.bias f4 [10]
0	0x3ccb4dd6	0.024817389
1	0x3dd75ca0	0.10515714
2	0xbe0b162a	-0.13582674
3	0xbdb25d29	-0.08709175
4	0x3dd571a7	0.10422068
5	0xbd472dcc	-0.04862766
6	0xbc56321c	-0.01307347
7	0x3ca741f9	0.0204172
8	0x3e36458f	0.17799972
9	0x3d5fda30	0.05465144
